…
Correct label is  tensor(3)  || Wrong label is  tensor(9) || Real class is  tensor(3)
Set parameter TokenServer to value "licences.gerad.lan"
Model for sequential:
800 variables
410 constraints
400 general constraints
Input has shape (1, 784)
Output has shape (1, 10)

--------------------------------------------------------------------------------
Layer           Output Shape    Variables              Constraints              
                                                Linear    Quadratic      General
================================================================================
linear_0            (1, 200)          200          200            0            0

relu_1              (1, 200)          200            0            0          200

linear_2            (1, 200)          200          200            0            0

relu_3              (1, 200)          200            0            0          200

linear_4             (1, 10)            0           10            0            0

--------------------------------------------------------------------------------
Set parameter BestBdStop to value 0
Set parameter BestObjStop to value 0
Set parameter TimeLimit to value 180
Gurobi Optimizer version 10.0.1 build v10.0.1rc0 (linux64)

CPU model: AMD EPYC 7402 24-Core Processor, instruction set [SSE2|AVX|AVX2]
Thread count: 48 physical cores, 96 logical processors, using up to 32 threads
…
 Elapsed time for training  151.30842757225037
Correct label is  tensor(3)  || Wrong label is  tensor(5) || Real class is  tensor(3)
Model for sequential:
1200 variables
610 constraints
600 general constraints
Input has shape (1, 784)
Output has shape (1, 10)

--------------------------------------------------------------------------------
Layer           Output Shape    Variables              Constraints              
                                                Linear    Quadratic      General
================================================================================
linear_0            (1, 100)          100          100            0            0

relu_1              (1, 100)          100            0            0          100

linear_2            (1, 100)          100          100            0            0

relu_3              (1, 100)          100            0            0          100

linear_4            (1, 100)          100          100            0            0

relu_5              (1, 100)          100            0            0          100

linear_6            (1, 100)          100          100            0            0

relu_7              (1, 100)          100            0            0          100

linear_8            (1, 100)          100          100            0            0

relu_9              (1, 100)          100            0            0          100

linear_10           (1, 100)          100          100            0            0

relu_11             (1, 100)          100            0            0          100

linear_12            (1, 10)            0           10            0            0

--------------------------------------------------------------------------------
Set parameter BestBdStop to value 0
Set parameter BestObjStop to value 0
Set parameter TimeLimit to value 180
Gurobi Optimizer version 10.0.1 build v10.0.1rc0 (linux64)

CPU model: AMD EPYC 7402 24-Core Processor, instruction set [SSE2|AVX|AVX2]
Thread count: 48 physical cores, 96 logical processors, using up to 32 threads
…
