…
Correct label is  tensor(1)  || Wrong label is  tensor(9) || Real class is  tensor(3)
Set parameter TokenServer to value "licences.gerad.lan"
Model for sequential:
12 variables
16 constraints
6 general constraints
Input has shape (1, 784)
Output has shape (1, 10)

--------------------------------------------------------------------------------
Layer           Output Shape    Variables              Constraints              
                                                Linear    Quadratic      General
================================================================================
linear_0              (1, 1)            1            1            0            0

relu_1                (1, 1)            1            0            0            1

linear_2              (1, 1)            1            1            0            0

relu_3                (1, 1)            1            0            0            1

linear_4              (1, 1)            1            1            0            0

relu_5                (1, 1)            1            0            0            1

linear_6              (1, 1)            1            1            0            0

relu_7                (1, 1)            1            0            0            1

linear_8              (1, 1)            1            1            0            0

relu_9                (1, 1)            1            0            0            1

linear_10             (1, 1)            1            1            0            0

relu_11               (1, 1)            1            0            0            1

linear_12            (1, 10)            0           10            0            0

--------------------------------------------------------------------------------
Set parameter BestBdStop to value 0
Set parameter BestObjStop to value 0
Set parameter TimeLimit to value 180
Gurobi Optimizer version 10.0.1 build v10.0.1rc0 (linux64)

CPU model: AMD EPYC 7402 24-Core Processor, instruction set [SSE2|AVX|AVX2]
Thread count: 48 physical cores, 96 logical processors, using up to 32 threads
…
