…
 * Prec@1 98.140
Correct label is  tensor(3)  || Wrong label is  tensor(9)
Set parameter TokenServer to value "licences.gerad.lan"
Model for sequential:
800 variables
410 constraints
400 general constraints
Input has shape (1, 784)
Output has shape (1, 10)

--------------------------------------------------------------------------------
Layer           Output Shape    Variables              Constraints              
                                                Linear    Quadratic      General
================================================================================
linear_0            (1, 200)          200          200            0            0

relu_1              (1, 200)          200            0            0          200

linear_2            (1, 200)          200          200            0            0

relu_3              (1, 200)          200            0            0          200

linear_4             (1, 10)            0           10            0            0

--------------------------------------------------------------------------------
Set parameter BestBdStop to value 0
Set parameter BestObjStop to value 0
Set parameter TimeLimit to value 18000
Gurobi Optimizer version 10.0.1 build v10.0.1rc0 (linux64)

CPU model: AMD EPYC 7402 24-Core Processor, instruction set [SSE2|AVX|AVX2]
Thread count: 48 physical cores, 96 logical processors, using up to 32 threads
…
Test: [49/79]	Loss 0.0025 (0.2426) ([0.003]+[0.000])	Prec@1 100.000 (97.156)
 * Prec@1 97.600
Correct label is  tensor(3)  || Wrong label is  tensor(9)
Model for sequential:
1200 variables
610 constraints
600 general constraints
Input has shape (1, 784)
Output has shape (1, 10)

--------------------------------------------------------------------------------
Layer           Output Shape    Variables              Constraints              
                                                Linear    Quadratic      General
================================================================================
linear_0            (1, 100)          100          100            0            0

relu_1              (1, 100)          100            0            0          100

linear_2            (1, 100)          100          100            0            0

relu_3              (1, 100)          100            0            0          100

linear_4            (1, 100)          100          100            0            0

relu_5              (1, 100)          100            0            0          100

linear_6            (1, 100)          100          100            0            0

relu_7              (1, 100)          100            0            0          100

linear_8            (1, 100)          100          100            0            0

relu_9              (1, 100)          100            0            0          100

linear_10           (1, 100)          100          100            0            0

relu_11             (1, 100)          100            0            0          100

linear_12            (1, 10)            0           10            0            0

--------------------------------------------------------------------------------
Set parameter BestBdStop to value 0
Set parameter BestObjStop to value 0
Set parameter TimeLimit to value 18000
Gurobi Optimizer version 10.0.1 build v10.0.1rc0 (linux64)

CPU model: AMD EPYC 7402 24-Core Processor, instruction set [SSE2|AVX|AVX2]
Thread count: 48 physical cores, 96 logical processors, using up to 32 threads
…
Correct label is  tensor(3)  || Wrong label is  tensor(8)
Warning for adding constraints: zero or small (< 1e-13) coefficients, ignored
Model for sequential:
714 variables
367 constraints
357 general constraints
Input has shape (1, 784)
Output has shape (1, 10)

--------------------------------------------------------------------------------
Layer           Output Shape    Variables              Constraints              
                                                Linear    Quadratic      General
================================================================================
linear_0             (1, 39)           39           39            0            0

relu_1               (1, 39)           39            0            0           39

linear_2             (1, 82)           82           82            0            0

relu_3               (1, 82)           82            0            0           82

linear_4             (1, 61)           61           61            0            0

relu_5               (1, 61)           61            0            0           61

linear_6             (1, 61)           61           61            0            0

relu_7               (1, 61)           61            0            0           61

linear_8             (1, 60)           60           60            0            0

relu_9               (1, 60)           60            0            0           60

linear_10            (1, 54)           54           54            0            0

relu_11              (1, 54)           54            0            0           54

linear_12            (1, 10)            0           10            0            0

--------------------------------------------------------------------------------
Set parameter BestBdStop to value 0
Set parameter BestObjStop to value 0
Set parameter TimeLimit to value 18000
Gurobi Optimizer version 10.0.1 build v10.0.1rc0 (linux64)

CPU model: AMD EPYC 7402 24-Core Processor, instruction set [SSE2|AVX|AVX2]
Thread count: 48 physical cores, 96 logical processors, using up to 32 threads
…
