…
Set parameter TokenServer to value "licences.gerad.lan"
Warning for adding constraints: zero or small (< 1e-13) coefficients, ignored
Model for sequential:
8000 variables
4010 constraints
4000 general constraints
Input has shape (1, 3072)
Output has shape (1, 10)

--------------------------------------------------------------------------------
Layer           Output Shape    Variables              Constraints              
                                                Linear    Quadratic      General
================================================================================
linear_0           (1, 2000)         2000         2000            0            0

relu_1             (1, 2000)         2000            0            0         2000

linear_2           (1, 2000)         2000         2000            0            0

relu_3             (1, 2000)         2000            0            0         2000

linear_4             (1, 10)            0           10            0            0

--------------------------------------------------------------------------------
Set parameter BestBdStop to value 0
Set parameter BestObjStop to value 0
Set parameter TimeLimit to value 180
Gurobi Optimizer version 10.0.1 build v10.0.1rc0 (linux64)

CPU model: AMD EPYC 7402 24-Core Processor, instruction set [SSE2|AVX|AVX2]
Thread count: 48 physical cores, 96 logical processors, using up to 32 threads
…
{'airplane': 0, 'automobile': 1, 'bird': 2, 'cat': 3, 'deer': 4, 'dog': 5, 'frog': 6, 'horse': 7, 'ship': 8, 'truck': 9}
Warning for adding constraints: zero or small (< 1e-13) coefficients, ignored
Model for sequential:
8000 variables
4010 constraints
4000 general constraints
Input has shape (1, 3072)
Output has shape (1, 10)

--------------------------------------------------------------------------------
Layer           Output Shape    Variables              Constraints              
                                                Linear    Quadratic      General
================================================================================
linear_0           (1, 1000)         1000         1000            0            0

relu_1             (1, 1000)         1000            0            0         1000

linear_2           (1, 1000)         1000         1000            0            0

relu_3             (1, 1000)         1000            0            0         1000

linear_4           (1, 1000)         1000         1000            0            0

relu_5             (1, 1000)         1000            0            0         1000

linear_6           (1, 1000)         1000         1000            0            0

relu_7             (1, 1000)         1000            0            0         1000

linear_8             (1, 10)            0           10            0            0

--------------------------------------------------------------------------------
Set parameter BestBdStop to value 0
Set parameter BestObjStop to value 0
Set parameter TimeLimit to value 180
Gurobi Optimizer version 10.0.1 build v10.0.1rc0 (linux64)

CPU model: AMD EPYC 7402 24-Core Processor, instruction set [SSE2|AVX|AVX2]
Thread count: 48 physical cores, 96 logical processors, using up to 32 threads
…
{'airplane': 0, 'automobile': 1, 'bird': 2, 'cat': 3, 'deer': 4, 'dog': 5, 'frog': 6, 'horse': 7, 'ship': 8, 'truck': 9}
Warning for adding constraints: zero or small (< 1e-13) coefficients, ignored
Model for sequential:
6000 variables
3010 constraints
3000 general constraints
Input has shape (1, 3072)
Output has shape (1, 10)

--------------------------------------------------------------------------------
Layer           Output Shape    Variables              Constraints              
                                                Linear    Quadratic      General
================================================================================
linear_0            (1, 500)          500          500            0            0

relu_1              (1, 500)          500            0            0          500

linear_2            (1, 500)          500          500            0            0

relu_3              (1, 500)          500            0            0          500

linear_4            (1, 500)          500          500            0            0

relu_5              (1, 500)          500            0            0          500

linear_6            (1, 500)          500          500            0            0

relu_7              (1, 500)          500            0            0          500

linear_8            (1, 500)          500          500            0            0

relu_9              (1, 500)          500            0            0          500

linear_10           (1, 500)          500          500            0            0

relu_11             (1, 500)          500            0            0          500

linear_12            (1, 10)            0           10            0            0

--------------------------------------------------------------------------------
Set parameter BestBdStop to value 0
Set parameter BestObjStop to value 0
Set parameter TimeLimit to value 180
Gurobi Optimizer version 10.0.1 build v10.0.1rc0 (linux64)

CPU model: AMD EPYC 7402 24-Core Processor, instruction set [SSE2|AVX|AVX2]
Thread count: 48 physical cores, 96 logical processors, using up to 32 threads
…
