…
{'airplane': 0, 'automobile': 1, 'bird': 2, 'cat': 3, 'deer': 4, 'dog': 5, 'frog': 6, 'horse': 7, 'ship': 8, 'truck': 9}
Set parameter TokenServer to value "licences.gerad.lan"
Model for sequential:
20000 variables
10010 constraints
10000 general constraints
Input has shape (1, 3072)
Output has shape (1, 10)

--------------------------------------------------------------------------------
Layer           Output Shape    Variables              Constraints              
                                                Linear    Quadratic      General
================================================================================
linear_0            (1, 500)          500          500            0            0

relu_1              (1, 500)          500            0            0          500

linear_2            (1, 500)          500          500            0            0

relu_3              (1, 500)          500            0            0          500

linear_4            (1, 500)          500          500            0            0

relu_5              (1, 500)          500            0            0          500

linear_6            (1, 500)          500          500            0            0

relu_7              (1, 500)          500            0            0          500

linear_8            (1, 500)          500          500            0            0

relu_9              (1, 500)          500            0            0          500

linear_10           (1, 500)          500          500            0            0

relu_11             (1, 500)          500            0            0          500

linear_12           (1, 500)          500          500            0            0

relu_13             (1, 500)          500            0            0          500

linear_14           (1, 500)          500          500            0            0

relu_15             (1, 500)          500            0            0          500

linear_16           (1, 500)          500          500            0            0

relu_17             (1, 500)          500            0            0          500

linear_18           (1, 500)          500          500            0            0

relu_19             (1, 500)          500            0            0          500

linear_20           (1, 500)          500          500            0            0

relu_21             (1, 500)          500            0            0          500

linear_22           (1, 500)          500          500            0            0

relu_23             (1, 500)          500            0            0          500

linear_24           (1, 500)          500          500            0            0

relu_25             (1, 500)          500            0            0          500

linear_26           (1, 500)          500          500            0            0

relu_27             (1, 500)          500            0            0          500

linear_28           (1, 500)          500          500            0            0

relu_29             (1, 500)          500            0            0          500

linear_30           (1, 500)          500          500            0            0

relu_31             (1, 500)          500            0            0          500

linear_32           (1, 500)          500          500            0            0

relu_33             (1, 500)          500            0            0          500

linear_34           (1, 500)          500          500            0            0

relu_35             (1, 500)          500            0            0          500

linear_36           (1, 500)          500          500            0            0

relu_37             (1, 500)          500            0            0          500

linear_38           (1, 500)          500          500            0            0

relu_39             (1, 500)          500            0            0          500

linear_40            (1, 10)            0           10            0            0

--------------------------------------------------------------------------------
Set parameter BestBdStop to value 0
Set parameter BestObjStop to value 0
Set parameter TimeLimit to value 180
Gurobi Optimizer version 10.0.1 build v10.0.1rc0 (linux64)

CPU model: AMD EPYC 7402 24-Core Processor, instruction set [SSE2|AVX|AVX2]
Thread count: 48 physical cores, 96 logical processors, using up to 32 threads
…
Correct label is  tensor(1)  || Wrong label is  tensor(9) || Real class is  1
{'airplane': 0, 'automobile': 1, 'bird': 2, 'cat': 3, 'deer': 4, 'dog': 5, 'frog': 6, 'horse': 7, 'ship': 8, 'truck': 9}
Model for sequential:
85072 variables
42546 constraints
42536 general constraints
Input has shape (1, 3072)
Output has shape (1, 10)

--------------------------------------------------------------------------------
Layer           Output Shape    Variables              Constraints              
                                                Linear    Quadratic      General
================================================================================
linear_0           (1, 6144)         6144         6144            0            0

relu_1             (1, 6144)         6144            0            0         6144

linear_2           (1, 6144)         6144         6144            0            0

relu_3             (1, 6144)         6144            0            0         6144

linear_4           (1, 9216)         9216         9216            0            0

relu_5             (1, 9216)         9216            0            0         9216

linear_6           (1, 6144)         6144         6144            0            0

relu_7             (1, 6144)         6144            0            0         6144

linear_8           (1, 6144)         6144         6144            0            0

relu_9             (1, 6144)         6144            0            0         6144

linear_10          (1, 3072)         3072         3072            0            0

relu_11            (1, 3072)         3072            0            0         3072

linear_12          (1, 3072)         3072         3072            0            0

relu_13            (1, 3072)         3072            0            0         3072

linear_14          (1, 1000)         1000         1000            0            0

relu_15            (1, 1000)         1000            0            0         1000

linear_16          (1, 1000)         1000         1000            0            0

relu_17            (1, 1000)         1000            0            0         1000

linear_18           (1, 500)          500          500            0            0

relu_19             (1, 500)          500            0            0          500

linear_20           (1, 100)          100          100            0            0

relu_21             (1, 100)          100            0            0          100

linear_22            (1, 10)            0           10            0            0

--------------------------------------------------------------------------------
Set parameter BestBdStop to value 0
Set parameter BestObjStop to value 0
Set parameter TimeLimit to value 180
Gurobi Optimizer version 10.0.1 build v10.0.1rc0 (linux64)

CPU model: AMD EPYC 7402 24-Core Processor, instruction set [SSE2|AVX|AVX2]
Thread count: 48 physical cores, 96 logical processors, using up to 32 threads
…
