…
Correct label is  tensor(0)  || Wrong label is  tensor(1) || Real class is  1
Set parameter TokenServer to value "licences.gerad.lan"
Model for sequential:
200 variables
110 constraints
100 general constraints
Input has shape (1, 3072)
Output has shape (1, 10)

--------------------------------------------------------------------------------
Layer           Output Shape    Variables              Constraints              
                                                Linear    Quadratic      General
================================================================================
linear_0             (1, 50)           50           50            0            0

relu_1               (1, 50)           50            0            0           50

linear_2             (1, 50)           50           50            0            0

relu_3               (1, 50)           50            0            0           50

linear_4             (1, 10)            0           10            0            0

--------------------------------------------------------------------------------
Set parameter BestBdStop to value 0
Set parameter BestObjStop to value 0
Set parameter TimeLimit to value 180
Gurobi Optimizer version 10.0.1 build v10.0.1rc0 (linux64)

CPU model: AMD EPYC 7402 24-Core Processor, instruction set [SSE2|AVX|AVX2]
Thread count: 48 physical cores, 96 logical processors, using up to 32 threads
…
Correct label is  tensor(2)  || Wrong label is  tensor(4) || Real class is  1
{'airplane': 0, 'automobile': 1, 'bird': 2, 'cat': 3, 'deer': 4, 'dog': 5, 'frog': 6, 'horse': 7, 'ship': 8, 'truck': 9}
Model for sequential:
400 variables
210 constraints
200 general constraints
Input has shape (1, 3072)
Output has shape (1, 10)

--------------------------------------------------------------------------------
Layer           Output Shape    Variables              Constraints              
                                                Linear    Quadratic      General
================================================================================
linear_0            (1, 100)          100          100            0            0

relu_1              (1, 100)          100            0            0          100

linear_2            (1, 100)          100          100            0            0

relu_3              (1, 100)          100            0            0          100

linear_4             (1, 10)            0           10            0            0

--------------------------------------------------------------------------------
Set parameter BestBdStop to value 0
Set parameter BestObjStop to value 0
Set parameter TimeLimit to value 180
Gurobi Optimizer version 10.0.1 build v10.0.1rc0 (linux64)

CPU model: AMD EPYC 7402 24-Core Processor, instruction set [SSE2|AVX|AVX2]
Thread count: 48 physical cores, 96 logical processors, using up to 32 threads
…
Correct label is  tensor(1)  || Wrong label is  tensor(8) || Real class is  1
{'airplane': 0, 'automobile': 1, 'bird': 2, 'cat': 3, 'deer': 4, 'dog': 5, 'frog': 6, 'horse': 7, 'ship': 8, 'truck': 9}
Model for sequential:
800 variables
410 constraints
400 general constraints
Input has shape (1, 3072)
Output has shape (1, 10)

--------------------------------------------------------------------------------
Layer           Output Shape    Variables              Constraints              
                                                Linear    Quadratic      General
================================================================================
linear_0            (1, 200)          200          200            0            0

relu_1              (1, 200)          200            0            0          200

linear_2            (1, 200)          200          200            0            0

relu_3              (1, 200)          200            0            0          200

linear_4             (1, 10)            0           10            0            0

--------------------------------------------------------------------------------
Set parameter BestBdStop to value 0
Set parameter BestObjStop to value 0
Set parameter TimeLimit to value 180
Gurobi Optimizer version 10.0.1 build v10.0.1rc0 (linux64)

CPU model: AMD EPYC 7402 24-Core Processor, instruction set [SSE2|AVX|AVX2]
Thread count: 48 physical cores, 96 logical processors, using up to 32 threads
…
Correct label is  tensor(1)  || Wrong label is  tensor(7) || Real class is  1
{'airplane': 0, 'automobile': 1, 'bird': 2, 'cat': 3, 'deer': 4, 'dog': 5, 'frog': 6, 'horse': 7, 'ship': 8, 'truck': 9}
Model for sequential:
1200 variables
610 constraints
600 general constraints
Input has shape (1, 3072)
Output has shape (1, 10)

--------------------------------------------------------------------------------
Layer           Output Shape    Variables              Constraints              
                                                Linear    Quadratic      General
================================================================================
linear_0            (1, 100)          100          100            0            0

relu_1              (1, 100)          100            0            0          100

linear_2            (1, 100)          100          100            0            0

relu_3              (1, 100)          100            0            0          100

linear_4            (1, 100)          100          100            0            0

relu_5              (1, 100)          100            0            0          100

linear_6            (1, 100)          100          100            0            0

relu_7              (1, 100)          100            0            0          100

linear_8            (1, 100)          100          100            0            0

relu_9              (1, 100)          100            0            0          100

linear_10           (1, 100)          100          100            0            0

relu_11             (1, 100)          100            0            0          100

linear_12            (1, 10)            0           10            0            0

--------------------------------------------------------------------------------
Set parameter BestBdStop to value 0
Set parameter BestObjStop to value 0
Set parameter TimeLimit to value 180
Gurobi Optimizer version 10.0.1 build v10.0.1rc0 (linux64)

CPU model: AMD EPYC 7402 24-Core Processor, instruction set [SSE2|AVX|AVX2]
Thread count: 48 physical cores, 96 logical processors, using up to 32 threads
…
