…
{'airplane': 0, 'automobile': 1, 'bird': 2, 'cat': 3, 'deer': 4, 'dog': 5, 'frog': 6, 'horse': 7, 'ship': 8, 'truck': 9}
Set parameter TokenServer to value "licences.gerad.lan"
Model for sequential:
4000 variables
2010 constraints
2000 general constraints
Input has shape (1, 3072)
Output has shape (1, 10)

--------------------------------------------------------------------------------
Layer           Output Shape    Variables              Constraints              
                                                Linear    Quadratic      General
================================================================================
linear_0           (1, 1000)         1000         1000            0            0

relu_1             (1, 1000)         1000            0            0         1000

linear_2           (1, 1000)         1000         1000            0            0

relu_3             (1, 1000)         1000            0            0         1000

linear_4             (1, 10)            0           10            0            0

--------------------------------------------------------------------------------
Set parameter BestBdStop to value 0
Set parameter BestObjStop to value 0
Set parameter TimeLimit to value 180
Gurobi Optimizer version 10.0.1 build v10.0.1rc0 (linux64)

CPU model: AMD EPYC 7402 24-Core Processor, instruction set [SSE2|AVX|AVX2]
Thread count: 48 physical cores, 96 logical processors, using up to 32 threads
…
Correct label is  tensor(7)  || Wrong label is  tensor(1) || Real class is  1
{'airplane': 0, 'automobile': 1, 'bird': 2, 'cat': 3, 'deer': 4, 'dog': 5, 'frog': 6, 'horse': 7, 'ship': 8, 'truck': 9}
Model for sequential:
8000 variables
4010 constraints
4000 general constraints
Input has shape (1, 3072)
Output has shape (1, 10)

--------------------------------------------------------------------------------
Layer           Output Shape    Variables              Constraints              
                                                Linear    Quadratic      General
================================================================================
linear_0           (1, 2000)         2000         2000            0            0

relu_1             (1, 2000)         2000            0            0         2000

linear_2           (1, 2000)         2000         2000            0            0

relu_3             (1, 2000)         2000            0            0         2000

linear_4             (1, 10)            0           10            0            0

--------------------------------------------------------------------------------
Set parameter BestBdStop to value 0
Set parameter BestObjStop to value 0
Set parameter TimeLimit to value 180
Gurobi Optimizer version 10.0.1 build v10.0.1rc0 (linux64)

CPU model: AMD EPYC 7402 24-Core Processor, instruction set [SSE2|AVX|AVX2]
Thread count: 48 physical cores, 96 logical processors, using up to 32 threads
…
Correct label is  tensor(1)  || Wrong label is  tensor(9) || Real class is  1
{'airplane': 0, 'automobile': 1, 'bird': 2, 'cat': 3, 'deer': 4, 'dog': 5, 'frog': 6, 'horse': 7, 'ship': 8, 'truck': 9}
Model for sequential:
3600 variables
1810 constraints
1800 general constraints
Input has shape (1, 3072)
Output has shape (1, 10)

--------------------------------------------------------------------------------
Layer           Output Shape    Variables              Constraints              
                                                Linear    Quadratic      General
================================================================================
linear_0            (1, 300)          300          300            0            0

relu_1              (1, 300)          300            0            0          300

linear_2            (1, 300)          300          300            0            0

relu_3              (1, 300)          300            0            0          300

linear_4            (1, 300)          300          300            0            0

relu_5              (1, 300)          300            0            0          300

linear_6            (1, 300)          300          300            0            0

relu_7              (1, 300)          300            0            0          300

linear_8            (1, 300)          300          300            0            0

relu_9              (1, 300)          300            0            0          300

linear_10           (1, 300)          300          300            0            0

relu_11             (1, 300)          300            0            0          300

linear_12            (1, 10)            0           10            0            0

--------------------------------------------------------------------------------
Set parameter BestBdStop to value 0
Set parameter BestObjStop to value 0
Set parameter TimeLimit to value 180
Gurobi Optimizer version 10.0.1 build v10.0.1rc0 (linux64)

CPU model: AMD EPYC 7402 24-Core Processor, instruction set [SSE2|AVX|AVX2]
Thread count: 48 physical cores, 96 logical processors, using up to 32 threads
…
Correct label is  tensor(1)  || Wrong label is  tensor(8) || Real class is  1
{'airplane': 0, 'automobile': 1, 'bird': 2, 'cat': 3, 'deer': 4, 'dog': 5, 'frog': 6, 'horse': 7, 'ship': 8, 'truck': 9}
Model for sequential:
6000 variables
3010 constraints
3000 general constraints
Input has shape (1, 3072)
Output has shape (1, 10)

--------------------------------------------------------------------------------
Layer           Output Shape    Variables              Constraints              
                                                Linear    Quadratic      General
================================================================================
linear_0            (1, 500)          500          500            0            0

relu_1              (1, 500)          500            0            0          500

linear_2            (1, 500)          500          500            0            0

relu_3              (1, 500)          500            0            0          500

linear_4            (1, 500)          500          500            0            0

relu_5              (1, 500)          500            0            0          500

linear_6            (1, 500)          500          500            0            0

relu_7              (1, 500)          500            0            0          500

linear_8            (1, 500)          500          500            0            0

relu_9              (1, 500)          500            0            0          500

linear_10           (1, 500)          500          500            0            0

relu_11             (1, 500)          500            0            0          500

linear_12            (1, 10)            0           10            0            0

--------------------------------------------------------------------------------
Set parameter BestBdStop to value 0
Set parameter BestObjStop to value 0
Set parameter TimeLimit to value 180
Gurobi Optimizer version 10.0.1 build v10.0.1rc0 (linux64)

CPU model: AMD EPYC 7402 24-Core Processor, instruction set [SSE2|AVX|AVX2]
Thread count: 48 physical cores, 96 logical processors, using up to 32 threads
…
Correct label is  tensor(1)  || Wrong label is  tensor(9) || Real class is  1
{'airplane': 0, 'automobile': 1, 'bird': 2, 'cat': 3, 'deer': 4, 'dog': 5, 'frog': 6, 'horse': 7, 'ship': 8, 'truck': 9}
Model for sequential:
12000 variables
6010 constraints
6000 general constraints
Input has shape (1, 3072)
Output has shape (1, 10)

--------------------------------------------------------------------------------
Layer           Output Shape    Variables              Constraints              
                                                Linear    Quadratic      General
================================================================================
linear_0           (1, 1000)         1000         1000            0            0

relu_1             (1, 1000)         1000            0            0         1000

linear_2           (1, 1000)         1000         1000            0            0

relu_3             (1, 1000)         1000            0            0         1000

linear_4           (1, 1000)         1000         1000            0            0

relu_5             (1, 1000)         1000            0            0         1000

linear_6           (1, 1000)         1000         1000            0            0

relu_7             (1, 1000)         1000            0            0         1000

linear_8           (1, 1000)         1000         1000            0            0

relu_9             (1, 1000)         1000            0            0         1000

linear_10          (1, 1000)         1000         1000            0            0

relu_11            (1, 1000)         1000            0            0         1000

linear_12            (1, 10)            0           10            0            0

--------------------------------------------------------------------------------
Set parameter BestBdStop to value 0
Set parameter BestObjStop to value 0
Set parameter TimeLimit to value 180
Gurobi Optimizer version 10.0.1 build v10.0.1rc0 (linux64)

CPU model: AMD EPYC 7402 24-Core Processor, instruction set [SSE2|AVX|AVX2]
Thread count: 48 physical cores, 96 logical processors, using up to 32 threads
…
Correct label is  tensor(1)  || Wrong label is  tensor(9) || Real class is  1
{'airplane': 0, 'automobile': 1, 'bird': 2, 'cat': 3, 'deer': 4, 'dog': 5, 'frog': 6, 'horse': 7, 'ship': 8, 'truck': 9}
Model for sequential:
10000 variables
5010 constraints
5000 general constraints
Input has shape (1, 3072)
Output has shape (1, 10)

--------------------------------------------------------------------------------
Layer           Output Shape    Variables              Constraints              
                                                Linear    Quadratic      General
================================================================================
linear_0            (1, 500)          500          500            0            0

relu_1              (1, 500)          500            0            0          500

linear_2            (1, 500)          500          500            0            0

relu_3              (1, 500)          500            0            0          500

linear_4            (1, 500)          500          500            0            0

relu_5              (1, 500)          500            0            0          500

linear_6            (1, 500)          500          500            0            0

relu_7              (1, 500)          500            0            0          500

linear_8            (1, 500)          500          500            0            0

relu_9              (1, 500)          500            0            0          500

linear_10           (1, 500)          500          500            0            0

relu_11             (1, 500)          500            0            0          500

linear_12           (1, 500)          500          500            0            0

relu_13             (1, 500)          500            0            0          500

linear_14           (1, 500)          500          500            0            0

relu_15             (1, 500)          500            0            0          500

linear_16           (1, 500)          500          500            0            0

relu_17             (1, 500)          500            0            0          500

linear_18           (1, 500)          500          500            0            0

relu_19             (1, 500)          500            0            0          500

linear_20            (1, 10)            0           10            0            0

--------------------------------------------------------------------------------
Set parameter BestBdStop to value 0
Set parameter BestObjStop to value 0
Set parameter TimeLimit to value 180
Gurobi Optimizer version 10.0.1 build v10.0.1rc0 (linux64)

CPU model: AMD EPYC 7402 24-Core Processor, instruction set [SSE2|AVX|AVX2]
Thread count: 48 physical cores, 96 logical processors, using up to 32 threads
…
