…
Set parameter TokenServer to value "licences.gerad.lan"
Warning for adding constraints: zero or small (< 1e-13) coefficients, ignored
Model for sequential:
164 variables
92 constraints
82 general constraints
Input has shape (1, 784)
Output has shape (1, 10)

--------------------------------------------------------------------------------
Layer           Output Shape    Variables              Constraints              
                                                Linear    Quadratic      General
================================================================================
linear_0             (1, 39)           39           39            0            0

relu_1               (1, 39)           39            0            0           39

linear_2             (1, 43)           43           43            0            0

relu_3               (1, 43)           43            0            0           43

linear_4             (1, 10)            0           10            0            0

--------------------------------------------------------------------------------
Set parameter BestBdStop to value 0
Set parameter BestObjStop to value 0
Set parameter TimeLimit to value 180
Gurobi Optimizer version 10.0.1 build v10.0.1rc0 (linux64)

CPU model: AMD EPYC 7402 24-Core Processor, instruction set [SSE2|AVX|AVX2]
Thread count: 48 physical cores, 96 logical processors, using up to 32 threads
…
Correct label is  tensor(3)  || Wrong label is  tensor(9)
Warning for adding constraints: zero or small (< 1e-13) coefficients, ignored
Model for sequential:
144 variables
82 constraints
72 general constraints
Input has shape (1, 784)
Output has shape (1, 10)

--------------------------------------------------------------------------------
Layer           Output Shape    Variables              Constraints              
                                                Linear    Quadratic      General
================================================================================
linear_0             (1, 30)           30           30            0            0

relu_1               (1, 30)           30            0            0           30

linear_2             (1, 42)           42           42            0            0

relu_3               (1, 42)           42            0            0           42

linear_4             (1, 10)            0           10            0            0

--------------------------------------------------------------------------------
Set parameter BestBdStop to value 0
Set parameter BestObjStop to value 0
Set parameter TimeLimit to value 180
Gurobi Optimizer version 10.0.1 build v10.0.1rc0 (linux64)

CPU model: AMD EPYC 7402 24-Core Processor, instruction set [SSE2|AVX|AVX2]
Thread count: 48 physical cores, 96 logical processors, using up to 32 threads
…
Correct label is  tensor(3)  || Wrong label is  tensor(5)
Warning for adding constraints: zero or small (< 1e-13) coefficients, ignored
Model for sequential:
162 variables
91 constraints
81 general constraints
Input has shape (1, 784)
Output has shape (1, 10)

--------------------------------------------------------------------------------
Layer           Output Shape    Variables              Constraints              
                                                Linear    Quadratic      General
================================================================================
linear_0             (1, 39)           39           39            0            0

relu_1               (1, 39)           39            0            0           39

linear_2             (1, 42)           42           42            0            0

relu_3               (1, 42)           42            0            0           42

linear_4             (1, 10)            0           10            0            0

--------------------------------------------------------------------------------
Set parameter BestBdStop to value 0
Set parameter BestObjStop to value 0
Set parameter TimeLimit to value 180
Gurobi Optimizer version 10.0.1 build v10.0.1rc0 (linux64)

CPU model: AMD EPYC 7402 24-Core Processor, instruction set [SSE2|AVX|AVX2]
Thread count: 48 physical cores, 96 logical processors, using up to 32 threads
…
Correct label is  tensor(3)  || Wrong label is  tensor(9)
Warning for adding constraints: zero or small (< 1e-13) coefficients, ignored
Model for sequential:
282 variables
151 constraints
141 general constraints
Input has shape (1, 784)
Output has shape (1, 10)

--------------------------------------------------------------------------------
Layer           Output Shape    Variables              Constraints              
                                                Linear    Quadratic      General
================================================================================
linear_0             (1, 61)           61           61            0            0

relu_1               (1, 61)           61            0            0           61

linear_2             (1, 80)           80           80            0            0

relu_3               (1, 80)           80            0            0           80

linear_4             (1, 10)            0           10            0            0

--------------------------------------------------------------------------------
Set parameter BestBdStop to value 0
Set parameter BestObjStop to value 0
Set parameter TimeLimit to value 180
Gurobi Optimizer version 10.0.1 build v10.0.1rc0 (linux64)

CPU model: AMD EPYC 7402 24-Core Processor, instruction set [SSE2|AVX|AVX2]
Thread count: 48 physical cores, 96 logical processors, using up to 32 threads
…
Correct label is  tensor(3)  || Wrong label is  tensor(5)
Warning for adding constraints: zero or small (< 1e-13) coefficients, ignored
Model for sequential:
296 variables
158 constraints
148 general constraints
Input has shape (1, 784)
Output has shape (1, 10)

--------------------------------------------------------------------------------
Layer           Output Shape    Variables              Constraints              
                                                Linear    Quadratic      General
================================================================================
linear_0             (1, 61)           61           61            0            0

relu_1               (1, 61)           61            0            0           61

linear_2             (1, 87)           87           87            0            0

relu_3               (1, 87)           87            0            0           87

linear_4             (1, 10)            0           10            0            0

--------------------------------------------------------------------------------
Set parameter BestBdStop to value 0
Set parameter BestObjStop to value 0
Set parameter TimeLimit to value 180
Gurobi Optimizer version 10.0.1 build v10.0.1rc0 (linux64)

CPU model: AMD EPYC 7402 24-Core Processor, instruction set [SSE2|AVX|AVX2]
Thread count: 48 physical cores, 96 logical processors, using up to 32 threads
…
Test: [49/79]	Loss 0.0008 (0.0867) ([0.001]+[0.000])	Prec@1 100.000 (97.562)
 * Prec@1 98.040
Correct label is  tensor(3)  || Wrong label is  tensor(5)
Model for sequential:
298 variables
159 constraints
149 general constraints
Input has shape (1, 784)
Output has shape (1, 10)

--------------------------------------------------------------------------------
Layer           Output Shape    Variables              Constraints              
                                                Linear    Quadratic      General
================================================================================
linear_0             (1, 63)           63           63            0            0

relu_1               (1, 63)           63            0            0           63

linear_2             (1, 86)           86           86            0            0

relu_3               (1, 86)           86            0            0           86

linear_4             (1, 10)            0           10            0            0

--------------------------------------------------------------------------------
Set parameter BestBdStop to value 0
Set parameter BestObjStop to value 0
Set parameter TimeLimit to value 180
Gurobi Optimizer version 10.0.1 build v10.0.1rc0 (linux64)

CPU model: AMD EPYC 7402 24-Core Processor, instruction set [SSE2|AVX|AVX2]
Thread count: 48 physical cores, 96 logical processors, using up to 32 threads
…
Test: [49/79]	Loss 0.0022 (0.0821) ([0.002]+[0.000])	Prec@1 100.000 (97.531)
 * Prec@1 97.960
Correct label is  tensor(3)  || Wrong label is  tensor(9)
Model for sequential:
400 variables
210 constraints
200 general constraints
Input has shape (1, 784)
Output has shape (1, 10)

--------------------------------------------------------------------------------
Layer           Output Shape    Variables              Constraints              
                                                Linear    Quadratic      General
================================================================================
linear_0             (1, 56)           56           56            0            0

relu_1               (1, 56)           56            0            0           56

linear_2            (1, 144)          144          144            0            0

relu_3              (1, 144)          144            0            0          144

linear_4             (1, 10)            0           10            0            0

--------------------------------------------------------------------------------
Set parameter BestBdStop to value 0
Set parameter BestObjStop to value 0
Set parameter TimeLimit to value 180
Gurobi Optimizer version 10.0.1 build v10.0.1rc0 (linux64)

CPU model: AMD EPYC 7402 24-Core Processor, instruction set [SSE2|AVX|AVX2]
Thread count: 48 physical cores, 96 logical processors, using up to 32 threads
…
Test: [49/79]	Loss 0.0044 (0.0807) ([0.004]+[0.000])	Prec@1 100.000 (97.688)
 * Prec@1 98.130
Correct label is  tensor(3)  || Wrong label is  tensor(9)
Model for sequential:
402 variables
211 constraints
201 general constraints
Input has shape (1, 784)
Output has shape (1, 10)

--------------------------------------------------------------------------------
Layer           Output Shape    Variables              Constraints              
                                                Linear    Quadratic      General
================================================================================
linear_0             (1, 57)           57           57            0            0

relu_1               (1, 57)           57            0            0           57

linear_2            (1, 144)          144          144            0            0

relu_3              (1, 144)          144            0            0          144

linear_4             (1, 10)            0           10            0            0

--------------------------------------------------------------------------------
Set parameter BestBdStop to value 0
Set parameter BestObjStop to value 0
Set parameter TimeLimit to value 180
Gurobi Optimizer version 10.0.1 build v10.0.1rc0 (linux64)

CPU model: AMD EPYC 7402 24-Core Processor, instruction set [SSE2|AVX|AVX2]
Thread count: 48 physical cores, 96 logical processors, using up to 32 threads
…
Test: [49/79]	Loss 0.0002 (0.0872) ([0.000]+[0.000])	Prec@1 100.000 (97.609)
 * Prec@1 98.040
Correct label is  tensor(3)  || Wrong label is  tensor(2)
Model for sequential:
398 variables
209 constraints
199 general constraints
Input has shape (1, 784)
Output has shape (1, 10)

--------------------------------------------------------------------------------
Layer           Output Shape    Variables              Constraints              
                                                Linear    Quadratic      General
================================================================================
linear_0             (1, 59)           59           59            0            0

relu_1               (1, 59)           59            0            0           59

linear_2            (1, 140)          140          140            0            0

relu_3              (1, 140)          140            0            0          140

linear_4             (1, 10)            0           10            0            0

--------------------------------------------------------------------------------
Set parameter BestBdStop to value 0
Set parameter BestObjStop to value 0
Set parameter TimeLimit to value 180
Gurobi Optimizer version 10.0.1 build v10.0.1rc0 (linux64)

CPU model: AMD EPYC 7402 24-Core Processor, instruction set [SSE2|AVX|AVX2]
Thread count: 48 physical cores, 96 logical processors, using up to 32 threads
…
Correct label is  tensor(3)  || Wrong label is  tensor(8)
Warning for adding constraints: zero or small (< 1e-13) coefficients, ignored
Model for sequential:
714 variables
367 constraints
357 general constraints
Input has shape (1, 784)
Output has shape (1, 10)

--------------------------------------------------------------------------------
Layer           Output Shape    Variables              Constraints              
                                                Linear    Quadratic      General
================================================================================
linear_0             (1, 39)           39           39            0            0

relu_1               (1, 39)           39            0            0           39

linear_2             (1, 82)           82           82            0            0

relu_3               (1, 82)           82            0            0           82

linear_4             (1, 61)           61           61            0            0

relu_5               (1, 61)           61            0            0           61

linear_6             (1, 61)           61           61            0            0

relu_7               (1, 61)           61            0            0           61

linear_8             (1, 60)           60           60            0            0

relu_9               (1, 60)           60            0            0           60

linear_10            (1, 54)           54           54            0            0

relu_11              (1, 54)           54            0            0           54

linear_12            (1, 10)            0           10            0            0

--------------------------------------------------------------------------------
Set parameter BestBdStop to value 0
Set parameter BestObjStop to value 0
Set parameter TimeLimit to value 180
Gurobi Optimizer version 10.0.1 build v10.0.1rc0 (linux64)

CPU model: AMD EPYC 7402 24-Core Processor, instruction set [SSE2|AVX|AVX2]
Thread count: 48 physical cores, 96 logical processors, using up to 32 threads
…
Correct label is  tensor(3)  || Wrong label is  tensor(8)
Warning for adding constraints: zero or small (< 1e-13) coefficients, ignored
Model for sequential:
622 variables
321 constraints
311 general constraints
Input has shape (1, 784)
Output has shape (1, 10)

--------------------------------------------------------------------------------
Layer           Output Shape    Variables              Constraints              
                                                Linear    Quadratic      General
================================================================================
linear_0             (1, 44)           44           44            0            0

relu_1               (1, 44)           44            0            0           44

linear_2             (1, 71)           71           71            0            0

relu_3               (1, 71)           71            0            0           71

linear_4             (1, 49)           49           49            0            0

relu_5               (1, 49)           49            0            0           49

linear_6             (1, 53)           53           53            0            0

relu_7               (1, 53)           53            0            0           53

linear_8             (1, 49)           49           49            0            0

relu_9               (1, 49)           49            0            0           49

linear_10            (1, 45)           45           45            0            0

relu_11              (1, 45)           45            0            0           45

linear_12            (1, 10)            0           10            0            0

--------------------------------------------------------------------------------
Set parameter BestBdStop to value 0
Set parameter BestObjStop to value 0
Set parameter TimeLimit to value 180
Gurobi Optimizer version 10.0.1 build v10.0.1rc0 (linux64)

CPU model: AMD EPYC 7402 24-Core Processor, instruction set [SSE2|AVX|AVX2]
Thread count: 48 physical cores, 96 logical processors, using up to 32 threads
…
Correct label is  tensor(3)  || Wrong label is  tensor(9)
Warning for adding constraints: zero or small (< 1e-13) coefficients, ignored
Model for sequential:
604 variables
312 constraints
302 general constraints
Input has shape (1, 784)
Output has shape (1, 10)

--------------------------------------------------------------------------------
Layer           Output Shape    Variables              Constraints              
                                                Linear    Quadratic      General
================================================================================
linear_0             (1, 37)           37           37            0            0

relu_1               (1, 37)           37            0            0           37

linear_2             (1, 72)           72           72            0            0

relu_3               (1, 72)           72            0            0           72

linear_4             (1, 48)           48           48            0            0

relu_5               (1, 48)           48            0            0           48

linear_6             (1, 51)           51           51            0            0

relu_7               (1, 51)           51            0            0           51

linear_8             (1, 48)           48           48            0            0

relu_9               (1, 48)           48            0            0           48

linear_10            (1, 46)           46           46            0            0

relu_11              (1, 46)           46            0            0           46

linear_12            (1, 10)            0           10            0            0

--------------------------------------------------------------------------------
Set parameter BestBdStop to value 0
Set parameter BestObjStop to value 0
Set parameter TimeLimit to value 180
Gurobi Optimizer version 10.0.1 build v10.0.1rc0 (linux64)

CPU model: AMD EPYC 7402 24-Core Processor, instruction set [SSE2|AVX|AVX2]
Thread count: 48 physical cores, 96 logical processors, using up to 32 threads
…
