…
Test: [49/79]	Loss 0.0201 (0.1204) ([0.020]+[0.000])	Prec@1 99.219 (96.828)
 * Prec@1 97.360
Set parameter TokenServer to value "licences.gerad.lan"
Model for sequential:
200 variables
110 constraints
100 general constraints
Input has shape (1, 784)
Output has shape (1, 10)

--------------------------------------------------------------------------------
Layer           Output Shape    Variables              Constraints              
                                                Linear    Quadratic      General
================================================================================
linear_0             (1, 50)           50           50            0            0

relu_1               (1, 50)           50            0            0           50

linear_2             (1, 50)           50           50            0            0

relu_3               (1, 50)           50            0            0           50

linear_4             (1, 10)            0           10            0            0

--------------------------------------------------------------------------------
Set parameter BestBdStop to value 0
Set parameter BestObjStop to value 0
Set parameter TimeLimit to value 180
Gurobi Optimizer version 10.0.1 build v10.0.1rc0 (linux64)

CPU model: AMD EPYC 7402 24-Core Processor, instruction set [SSE2|AVX|AVX2]
Thread count: 48 physical cores, 96 logical processors, using up to 32 threads
…
 * Prec@1 97.430
Best accuracy:  97.62
Test: [49/79]	Loss 0.0006 (0.1172) ([0.001]+[0.000])	Prec@1 100.000 (96.953)
 * Prec@1 97.420
Model for sequential:
194 variables
107 constraints
97 general constraints
Input has shape (1, 784)
Output has shape (1, 10)

--------------------------------------------------------------------------------
Layer           Output Shape    Variables              Constraints              
                                                Linear    Quadratic      General
================================================================================
linear_0             (1, 47)           47           47            0            0

relu_1               (1, 47)           47            0            0           47

linear_2             (1, 50)           50           50            0            0

relu_3               (1, 50)           50            0            0           50

linear_4             (1, 10)            0           10            0            0

--------------------------------------------------------------------------------
Set parameter BestBdStop to value 0
Set parameter BestObjStop to value 0
Set parameter TimeLimit to value 180
Gurobi Optimizer version 10.0.1 build v10.0.1rc0 (linux64)

CPU model: AMD EPYC 7402 24-Core Processor, instruction set [SSE2|AVX|AVX2]
Thread count: 48 physical cores, 96 logical processors, using up to 32 threads
…
 * Prec@1 97.490
Best accuracy:  97.54
Test: [49/79]	Loss 0.0239 (0.1242) ([0.024]+[0.000])	Prec@1 99.219 (96.953)
 * Prec@1 97.490
Model for sequential:
198 variables
109 constraints
99 general constraints
Input has shape (1, 784)
Output has shape (1, 10)

--------------------------------------------------------------------------------
Layer           Output Shape    Variables              Constraints              
                                                Linear    Quadratic      General
================================================================================
linear_0             (1, 49)           49           49            0            0

relu_1               (1, 49)           49            0            0           49

linear_2             (1, 50)           50           50            0            0

relu_3               (1, 50)           50            0            0           50

linear_4             (1, 10)            0           10            0            0

--------------------------------------------------------------------------------
Set parameter BestBdStop to value 0
Set parameter BestObjStop to value 0
Set parameter TimeLimit to value 180
Gurobi Optimizer version 10.0.1 build v10.0.1rc0 (linux64)

CPU model: AMD EPYC 7402 24-Core Processor, instruction set [SSE2|AVX|AVX2]
Thread count: 48 physical cores, 96 logical processors, using up to 32 threads
…
 * Prec@1 97.600
Best accuracy:  97.82
Test: [49/79]	Loss 0.0072 (0.1052) ([0.007]+[0.000])	Prec@1 99.219 (96.969)
 * Prec@1 97.600
Model for sequential:
192 variables
106 constraints
96 general constraints
Input has shape (1, 784)
Output has shape (1, 10)

--------------------------------------------------------------------------------
Layer           Output Shape    Variables              Constraints              
                                                Linear    Quadratic      General
================================================================================
linear_0             (1, 46)           46           46            0            0

relu_1               (1, 46)           46            0            0           46

linear_2             (1, 50)           50           50            0            0

relu_3               (1, 50)           50            0            0           50

linear_4             (1, 10)            0           10            0            0

--------------------------------------------------------------------------------
Set parameter BestBdStop to value 0
Set parameter BestObjStop to value 0
Set parameter TimeLimit to value 180
Gurobi Optimizer version 10.0.1 build v10.0.1rc0 (linux64)

CPU model: AMD EPYC 7402 24-Core Processor, instruction set [SSE2|AVX|AVX2]
Thread count: 48 physical cores, 96 logical processors, using up to 32 threads
…
 * Prec@1 97.600
Best accuracy:  97.68
Test: [49/79]	Loss 0.0205 (0.1117) ([0.020]+[0.000])	Prec@1 99.219 (97.141)
 * Prec@1 97.550
Model for sequential:
186 variables
103 constraints
93 general constraints
Input has shape (1, 784)
Output has shape (1, 10)

--------------------------------------------------------------------------------
Layer           Output Shape    Variables              Constraints              
                                                Linear    Quadratic      General
================================================================================
linear_0             (1, 43)           43           43            0            0

relu_1               (1, 43)           43            0            0           43

linear_2             (1, 50)           50           50            0            0

relu_3               (1, 50)           50            0            0           50

linear_4             (1, 10)            0           10            0            0

--------------------------------------------------------------------------------
Set parameter BestBdStop to value 0
Set parameter BestObjStop to value 0
Set parameter TimeLimit to value 180
Gurobi Optimizer version 10.0.1 build v10.0.1rc0 (linux64)

CPU model: AMD EPYC 7402 24-Core Processor, instruction set [SSE2|AVX|AVX2]
Thread count: 48 physical cores, 96 logical processors, using up to 32 threads
…
Test: [49/79]	Loss 0.0331 (0.1297) ([0.033]+[0.000])	Prec@1 98.438 (96.344)
 * Prec@1 96.930
Warning for adding constraints: zero or small (< 1e-13) coefficients, ignored
Model for sequential:
140 variables
80 constraints
70 general constraints
Input has shape (1, 784)
Output has shape (1, 10)

--------------------------------------------------------------------------------
Layer           Output Shape    Variables              Constraints              
                                                Linear    Quadratic      General
================================================================================
linear_0             (1, 27)           27           27            0            0

relu_1               (1, 27)           27            0            0           27

linear_2             (1, 43)           43           43            0            0

relu_3               (1, 43)           43            0            0           43

linear_4             (1, 10)            0           10            0            0

--------------------------------------------------------------------------------
Set parameter BestBdStop to value 0
Set parameter BestObjStop to value 0
Set parameter TimeLimit to value 180
Gurobi Optimizer version 10.0.1 build v10.0.1rc0 (linux64)

CPU model: AMD EPYC 7402 24-Core Processor, instruction set [SSE2|AVX|AVX2]
Thread count: 48 physical cores, 96 logical processors, using up to 32 threads
…
Test: [49/79]	Loss 0.0300 (0.1425) ([0.030]+[0.000])	Prec@1 99.219 (96.062)
 * Prec@1 96.530
Warning for adding constraints: zero or small (< 1e-13) coefficients, ignored
Model for sequential:
124 variables
72 constraints
62 general constraints
Input has shape (1, 784)
Output has shape (1, 10)

--------------------------------------------------------------------------------
Layer           Output Shape    Variables              Constraints              
                                                Linear    Quadratic      General
================================================================================
linear_0             (1, 22)           22           22            0            0

relu_1               (1, 22)           22            0            0           22

linear_2             (1, 40)           40           40            0            0

relu_3               (1, 40)           40            0            0           40

linear_4             (1, 10)            0           10            0            0

--------------------------------------------------------------------------------
Set parameter BestBdStop to value 0
Set parameter BestObjStop to value 0
Set parameter TimeLimit to value 180
Gurobi Optimizer version 10.0.1 build v10.0.1rc0 (linux64)

CPU model: AMD EPYC 7402 24-Core Processor, instruction set [SSE2|AVX|AVX2]
Thread count: 48 physical cores, 96 logical processors, using up to 32 threads
…
Test: [49/79]	Loss 0.0057 (0.1245) ([0.006]+[0.000])	Prec@1 100.000 (96.391)
 * Prec@1 96.990
Warning for adding constraints: zero or small (< 1e-13) coefficients, ignored
Model for sequential:
142 variables
81 constraints
71 general constraints
Input has shape (1, 784)
Output has shape (1, 10)

--------------------------------------------------------------------------------
Layer           Output Shape    Variables              Constraints              
                                                Linear    Quadratic      General
================================================================================
linear_0             (1, 29)           29           29            0            0

relu_1               (1, 29)           29            0            0           29

linear_2             (1, 42)           42           42            0            0

relu_3               (1, 42)           42            0            0           42

linear_4             (1, 10)            0           10            0            0

--------------------------------------------------------------------------------
Set parameter BestBdStop to value 0
Set parameter BestObjStop to value 0
Set parameter TimeLimit to value 180
Gurobi Optimizer version 10.0.1 build v10.0.1rc0 (linux64)

CPU model: AMD EPYC 7402 24-Core Processor, instruction set [SSE2|AVX|AVX2]
Thread count: 48 physical cores, 96 logical processors, using up to 32 threads
…
Test: [49/79]	Loss 0.0032 (0.1247) ([0.003]+[0.000])	Prec@1 100.000 (96.312)
 * Prec@1 96.920
Warning for adding constraints: zero or small (< 1e-13) coefficients, ignored
Model for sequential:
122 variables
71 constraints
61 general constraints
Input has shape (1, 784)
Output has shape (1, 10)

--------------------------------------------------------------------------------
Layer           Output Shape    Variables              Constraints              
                                                Linear    Quadratic      General
================================================================================
linear_0             (1, 19)           19           19            0            0

relu_1               (1, 19)           19            0            0           19

linear_2             (1, 42)           42           42            0            0

relu_3               (1, 42)           42            0            0           42

linear_4             (1, 10)            0           10            0            0

--------------------------------------------------------------------------------
Set parameter BestBdStop to value 0
Set parameter BestObjStop to value 0
Set parameter TimeLimit to value 180
Gurobi Optimizer version 10.0.1 build v10.0.1rc0 (linux64)

CPU model: AMD EPYC 7402 24-Core Processor, instruction set [SSE2|AVX|AVX2]
Thread count: 48 physical cores, 96 logical processors, using up to 32 threads
…
Test: [49/79]	Loss 0.0143 (0.1056) ([0.014]+[0.000])	Prec@1 99.219 (96.828)
 * Prec@1 97.360
Warning for adding constraints: zero or small (< 1e-13) coefficients, ignored
Model for sequential:
130 variables
75 constraints
65 general constraints
Input has shape (1, 784)
Output has shape (1, 10)

--------------------------------------------------------------------------------
Layer           Output Shape    Variables              Constraints              
                                                Linear    Quadratic      General
================================================================================
linear_0             (1, 25)           25           25            0            0

relu_1               (1, 25)           25            0            0           25

linear_2             (1, 40)           40           40            0            0

relu_3               (1, 40)           40            0            0           40

linear_4             (1, 10)            0           10            0            0

--------------------------------------------------------------------------------
Set parameter BestBdStop to value 0
Set parameter BestObjStop to value 0
Set parameter TimeLimit to value 180
Gurobi Optimizer version 10.0.1 build v10.0.1rc0 (linux64)

CPU model: AMD EPYC 7402 24-Core Processor, instruction set [SSE2|AVX|AVX2]
Thread count: 48 physical cores, 96 logical processors, using up to 32 threads
…
Test: [49/79]	Loss 0.0134 (0.1274) ([0.013]+[0.000])	Prec@1 100.000 (96.047)
 * Prec@1 96.740
Warning for adding constraints: zero or small (< 1e-13) coefficients, ignored
Model for sequential:
124 variables
72 constraints
62 general constraints
Input has shape (1, 784)
Output has shape (1, 10)

--------------------------------------------------------------------------------
Layer           Output Shape    Variables              Constraints              
                                                Linear    Quadratic      General
================================================================================
linear_0             (1, 21)           21           21            0            0

relu_1               (1, 21)           21            0            0           21

linear_2             (1, 41)           41           41            0            0

relu_3               (1, 41)           41            0            0           41

linear_4             (1, 10)            0           10            0            0

--------------------------------------------------------------------------------
Set parameter BestBdStop to value 0
Set parameter BestObjStop to value 0
Set parameter TimeLimit to value 180
Gurobi Optimizer version 10.0.1 build v10.0.1rc0 (linux64)

CPU model: AMD EPYC 7402 24-Core Processor, instruction set [SSE2|AVX|AVX2]
Thread count: 48 physical cores, 96 logical processors, using up to 32 threads
…
Test: [49/79]	Loss 0.0040 (0.1007) ([0.004]+[0.000])	Prec@1 100.000 (97.188)
 * Prec@1 97.670
Warning for adding constraints: zero or small (< 1e-13) coefficients, ignored
Model for sequential:
156 variables
88 constraints
78 general constraints
Input has shape (1, 784)
Output has shape (1, 10)

--------------------------------------------------------------------------------
Layer           Output Shape    Variables              Constraints              
                                                Linear    Quadratic      General
================================================================================
linear_0             (1, 35)           35           35            0            0

relu_1               (1, 35)           35            0            0           35

linear_2             (1, 43)           43           43            0            0

relu_3               (1, 43)           43            0            0           43

linear_4             (1, 10)            0           10            0            0

--------------------------------------------------------------------------------
Set parameter BestBdStop to value 0
Set parameter BestObjStop to value 0
Set parameter TimeLimit to value 180
Gurobi Optimizer version 10.0.1 build v10.0.1rc0 (linux64)

CPU model: AMD EPYC 7402 24-Core Processor, instruction set [SSE2|AVX|AVX2]
Thread count: 48 physical cores, 96 logical processors, using up to 32 threads
…
Test: [49/79]	Loss 0.0137 (0.0964) ([0.014]+[0.000])	Prec@1 99.219 (97.000)
 * Prec@1 97.570
Warning for adding constraints: zero or small (< 1e-13) coefficients, ignored
Model for sequential:
156 variables
88 constraints
78 general constraints
Input has shape (1, 784)
Output has shape (1, 10)

--------------------------------------------------------------------------------
Layer           Output Shape    Variables              Constraints              
                                                Linear    Quadratic      General
================================================================================
linear_0             (1, 36)           36           36            0            0

relu_1               (1, 36)           36            0            0           36

linear_2             (1, 42)           42           42            0            0

relu_3               (1, 42)           42            0            0           42

linear_4             (1, 10)            0           10            0            0

--------------------------------------------------------------------------------
Set parameter BestBdStop to value 0
Set parameter BestObjStop to value 0
Set parameter TimeLimit to value 180
Gurobi Optimizer version 10.0.1 build v10.0.1rc0 (linux64)

CPU model: AMD EPYC 7402 24-Core Processor, instruction set [SSE2|AVX|AVX2]
Thread count: 48 physical cores, 96 logical processors, using up to 32 threads
…
Test: [49/79]	Loss 0.0059 (0.0980) ([0.006]+[0.000])	Prec@1 100.000 (97.078)
 * Prec@1 97.560
Warning for adding constraints: zero or small (< 1e-13) coefficients, ignored
Model for sequential:
158 variables
89 constraints
79 general constraints
Input has shape (1, 784)
Output has shape (1, 10)

--------------------------------------------------------------------------------
Layer           Output Shape    Variables              Constraints              
                                                Linear    Quadratic      General
================================================================================
linear_0             (1, 37)           37           37            0            0

relu_1               (1, 37)           37            0            0           37

linear_2             (1, 42)           42           42            0            0

relu_3               (1, 42)           42            0            0           42

linear_4             (1, 10)            0           10            0            0

--------------------------------------------------------------------------------
Set parameter BestBdStop to value 0
Set parameter BestObjStop to value 0
Set parameter TimeLimit to value 180
Gurobi Optimizer version 10.0.1 build v10.0.1rc0 (linux64)

CPU model: AMD EPYC 7402 24-Core Processor, instruction set [SSE2|AVX|AVX2]
Thread count: 48 physical cores, 96 logical processors, using up to 32 threads
…
Test: [49/79]	Loss 0.0169 (0.1538) ([0.017]+[0.000])	Prec@1 99.219 (95.625)
 * Prec@1 96.310
Warning for adding constraints: zero or small (< 1e-13) coefficients, ignored
Model for sequential:
114 variables
67 constraints
57 general constraints
Input has shape (1, 784)
Output has shape (1, 10)

--------------------------------------------------------------------------------
Layer           Output Shape    Variables              Constraints              
                                                Linear    Quadratic      General
================================================================================
linear_0             (1, 16)           16           16            0            0

relu_1               (1, 16)           16            0            0           16

linear_2             (1, 41)           41           41            0            0

relu_3               (1, 41)           41            0            0           41

linear_4             (1, 10)            0           10            0            0

--------------------------------------------------------------------------------
Set parameter BestBdStop to value 0
Set parameter BestObjStop to value 0
Set parameter TimeLimit to value 180
Gurobi Optimizer version 10.0.1 build v10.0.1rc0 (linux64)

CPU model: AMD EPYC 7402 24-Core Processor, instruction set [SSE2|AVX|AVX2]
Thread count: 48 physical cores, 96 logical processors, using up to 32 threads
…
Test: [49/79]	Loss 0.0302 (0.1416) ([0.030]+[0.000])	Prec@1 98.438 (95.797)
 * Prec@1 96.420
Warning for adding constraints: zero or small (< 1e-13) coefficients, ignored
Model for sequential:
112 variables
66 constraints
56 general constraints
Input has shape (1, 784)
Output has shape (1, 10)

--------------------------------------------------------------------------------
Layer           Output Shape    Variables              Constraints              
                                                Linear    Quadratic      General
================================================================================
linear_0             (1, 18)           18           18            0            0

relu_1               (1, 18)           18            0            0           18

linear_2             (1, 38)           38           38            0            0

relu_3               (1, 38)           38            0            0           38

linear_4             (1, 10)            0           10            0            0

--------------------------------------------------------------------------------
Set parameter BestBdStop to value 0
Set parameter BestObjStop to value 0
Set parameter TimeLimit to value 180
Gurobi Optimizer version 10.0.1 build v10.0.1rc0 (linux64)

CPU model: AMD EPYC 7402 24-Core Processor, instruction set [SSE2|AVX|AVX2]
Thread count: 48 physical cores, 96 logical processors, using up to 32 threads
…
