…
Test: [49/79]	Loss 0.0005 (0.1286) ([0.001]+[0.000])	Prec@1 100.000 (97.031)
 * Prec@1 97.550
Set parameter TokenServer to value "licences.gerad.lan"
Model for sequential:
200 variables
110 constraints
100 general constraints
Input has shape (1, 784)
Output has shape (1, 10)

--------------------------------------------------------------------------------
Layer           Output Shape    Variables              Constraints              
                                                Linear    Quadratic      General
================================================================================
linear_0             (1, 50)           50           50            0            0

relu_1               (1, 50)           50            0            0           50

linear_2             (1, 50)           50           50            0            0

relu_3               (1, 50)           50            0            0           50

linear_4             (1, 10)            0           10            0            0

--------------------------------------------------------------------------------
Set parameter BestBdStop to value 0
Set parameter BestObjStop to value 0
Set parameter TimeLimit to value 180
Set parameter OBBT to value 3
Set parameter Cuts to value 0
Gurobi Optimizer version 10.0.1 build v10.0.1rc0 (linux64)

CPU model: AMD EPYC 7402 24-Core Processor, instruction set [SSE2|AVX|AVX2]
…
=> loaded pretrained arch 97.96, with accuracy '2x100'
Test: [49/79]	Loss 0.0002 (0.1080) ([0.000]+[0.000])	Prec@1 100.000 (97.516)
 * Prec@1 97.960
Model for sequential:
400 variables
210 constraints
200 general constraints
Input has shape (1, 784)
Output has shape (1, 10)

--------------------------------------------------------------------------------
Layer           Output Shape    Variables              Constraints              
                                                Linear    Quadratic      General
================================================================================
linear_0            (1, 100)          100          100            0            0

relu_1              (1, 100)          100            0            0          100

linear_2            (1, 100)          100          100            0            0

relu_3              (1, 100)          100            0            0          100

linear_4             (1, 10)            0           10            0            0

--------------------------------------------------------------------------------
Set parameter BestBdStop to value 0
Set parameter BestObjStop to value 0
Set parameter TimeLimit to value 180
Set parameter OBBT to value 3
Set parameter Cuts to value 0
Gurobi Optimizer version 10.0.1 build v10.0.1rc0 (linux64)

CPU model: AMD EPYC 7402 24-Core Processor, instruction set [SSE2|AVX|AVX2]
…
=> loaded pretrained arch 98.14, with accuracy '2x200'
Test: [49/79]	Loss 0.0004 (0.0901) ([0.000]+[0.000])	Prec@1 100.000 (97.750)
 * Prec@1 98.140
Model for sequential:
800 variables
410 constraints
400 general constraints
Input has shape (1, 784)
Output has shape (1, 10)

--------------------------------------------------------------------------------
Layer           Output Shape    Variables              Constraints              
                                                Linear    Quadratic      General
================================================================================
linear_0            (1, 200)          200          200            0            0

relu_1              (1, 200)          200            0            0          200

linear_2            (1, 200)          200          200            0            0

relu_3              (1, 200)          200            0            0          200

linear_4             (1, 10)            0           10            0            0

--------------------------------------------------------------------------------
Set parameter BestBdStop to value 0
Set parameter BestObjStop to value 0
Set parameter TimeLimit to value 180
Set parameter OBBT to value 3
Set parameter Cuts to value 0
Gurobi Optimizer version 10.0.1 build v10.0.1rc0 (linux64)

CPU model: AMD EPYC 7402 24-Core Processor, instruction set [SSE2|AVX|AVX2]
…
=> loaded pretrained arch 97.6, with accuracy '6x100'
Test: [49/79]	Loss 0.0025 (0.2426) ([0.003]+[0.000])	Prec@1 100.000 (97.156)
 * Prec@1 97.600
Model for sequential:
1200 variables
610 constraints
600 general constraints
Input has shape (1, 784)
Output has shape (1, 10)

--------------------------------------------------------------------------------
Layer           Output Shape    Variables              Constraints              
                                                Linear    Quadratic      General
================================================================================
linear_0            (1, 100)          100          100            0            0

relu_1              (1, 100)          100            0            0          100

linear_2            (1, 100)          100          100            0            0

relu_3              (1, 100)          100            0            0          100

linear_4            (1, 100)          100          100            0            0

relu_5              (1, 100)          100            0            0          100

linear_6            (1, 100)          100          100            0            0

relu_7              (1, 100)          100            0            0          100

linear_8            (1, 100)          100          100            0            0

relu_9              (1, 100)          100            0            0          100

linear_10           (1, 100)          100          100            0            0

relu_11             (1, 100)          100            0            0          100

linear_12            (1, 10)            0           10            0            0

--------------------------------------------------------------------------------
Set parameter BestBdStop to value 0
Set parameter BestObjStop to value 0
Set parameter TimeLimit to value 180
Set parameter OBBT to value 3
Set parameter Cuts to value 0
Gurobi Optimizer version 10.0.1 build v10.0.1rc0 (linux64)

CPU model: AMD EPYC 7402 24-Core Processor, instruction set [SSE2|AVX|AVX2]
…
