…
Set parameter TokenServer to value "licences.gerad.lan"
Warning for adding constraints: zero or small (< 1e-13) coefficients, ignored
Model for sequential:
164 variables
92 constraints
82 general constraints
Input has shape (1, 784)
Output has shape (1, 10)

--------------------------------------------------------------------------------
Layer           Output Shape    Variables              Constraints              
                                                Linear    Quadratic      General
================================================================================
linear_0             (1, 39)           39           39            0            0

relu_1               (1, 39)           39            0            0           39

linear_2             (1, 43)           43           43            0            0

relu_3               (1, 43)           43            0            0           43

linear_4             (1, 10)            0           10            0            0

--------------------------------------------------------------------------------
Set parameter BestBdStop to value 0
Set parameter BestObjStop to value 0
Set parameter TimeLimit to value 180
Gurobi Optimizer version 10.0.1 build v10.0.1rc0 (linux64)

CPU model: AMD EPYC 7402 24-Core Processor, instruction set [SSE2|AVX|AVX2]
Thread count: 48 physical cores, 96 logical processors, using up to 32 threads
…
Correct label is  tensor(3)  || Wrong label is  tensor(9)
Warning for adding constraints: zero or small (< 1e-13) coefficients, ignored
Model for sequential:
144 variables
82 constraints
72 general constraints
Input has shape (1, 784)
Output has shape (1, 10)

--------------------------------------------------------------------------------
Layer           Output Shape    Variables              Constraints              
                                                Linear    Quadratic      General
================================================================================
linear_0             (1, 30)           30           30            0            0

relu_1               (1, 30)           30            0            0           30

linear_2             (1, 42)           42           42            0            0

relu_3               (1, 42)           42            0            0           42

linear_4             (1, 10)            0           10            0            0

--------------------------------------------------------------------------------
Set parameter BestBdStop to value 0
Set parameter BestObjStop to value 0
Set parameter TimeLimit to value 180
Gurobi Optimizer version 10.0.1 build v10.0.1rc0 (linux64)

CPU model: AMD EPYC 7402 24-Core Processor, instruction set [SSE2|AVX|AVX2]
Thread count: 48 physical cores, 96 logical processors, using up to 32 threads
…
Correct label is  tensor(3)  || Wrong label is  tensor(5)
Warning for adding constraints: zero or small (< 1e-13) coefficients, ignored
Model for sequential:
162 variables
91 constraints
81 general constraints
Input has shape (1, 784)
Output has shape (1, 10)

--------------------------------------------------------------------------------
Layer           Output Shape    Variables              Constraints              
                                                Linear    Quadratic      General
================================================================================
linear_0             (1, 39)           39           39            0            0

relu_1               (1, 39)           39            0            0           39

linear_2             (1, 42)           42           42            0            0

relu_3               (1, 42)           42            0            0           42

linear_4             (1, 10)            0           10            0            0

--------------------------------------------------------------------------------
Set parameter BestBdStop to value 0
Set parameter BestObjStop to value 0
Set parameter TimeLimit to value 180
Gurobi Optimizer version 10.0.1 build v10.0.1rc0 (linux64)

CPU model: AMD EPYC 7402 24-Core Processor, instruction set [SSE2|AVX|AVX2]
Thread count: 48 physical cores, 96 logical processors, using up to 32 threads
…
Correct label is  tensor(3)  || Wrong label is  tensor(5)
Warning for adding constraints: zero or small (< 1e-13) coefficients, ignored
Model for sequential:
162 variables
91 constraints
81 general constraints
Input has shape (1, 784)
Output has shape (1, 10)

--------------------------------------------------------------------------------
Layer           Output Shape    Variables              Constraints              
                                                Linear    Quadratic      General
================================================================================
linear_0             (1, 41)           41           41            0            0

relu_1               (1, 41)           41            0            0           41

linear_2             (1, 40)           40           40            0            0

relu_3               (1, 40)           40            0            0           40

linear_4             (1, 10)            0           10            0            0

--------------------------------------------------------------------------------
Set parameter BestBdStop to value 0
Set parameter BestObjStop to value 0
Set parameter TimeLimit to value 180
Gurobi Optimizer version 10.0.1 build v10.0.1rc0 (linux64)

CPU model: AMD EPYC 7402 24-Core Processor, instruction set [SSE2|AVX|AVX2]
Thread count: 48 physical cores, 96 logical processors, using up to 32 threads
…
Correct label is  tensor(3)  || Wrong label is  tensor(9)
Warning for adding constraints: zero or small (< 1e-13) coefficients, ignored
Model for sequential:
136 variables
78 constraints
68 general constraints
Input has shape (1, 784)
Output has shape (1, 10)

--------------------------------------------------------------------------------
Layer           Output Shape    Variables              Constraints              
                                                Linear    Quadratic      General
================================================================================
linear_0             (1, 27)           27           27            0            0

relu_1               (1, 27)           27            0            0           27

linear_2             (1, 41)           41           41            0            0

relu_3               (1, 41)           41            0            0           41

linear_4             (1, 10)            0           10            0            0

--------------------------------------------------------------------------------
Set parameter BestBdStop to value 0
Set parameter BestObjStop to value 0
Set parameter TimeLimit to value 180
Gurobi Optimizer version 10.0.1 build v10.0.1rc0 (linux64)

CPU model: AMD EPYC 7402 24-Core Processor, instruction set [SSE2|AVX|AVX2]
Thread count: 48 physical cores, 96 logical processors, using up to 32 threads
…
Correct label is  tensor(3)  || Wrong label is  tensor(5)
Warning for adding constraints: zero or small (< 1e-13) coefficients, ignored
Model for sequential:
162 variables
91 constraints
81 general constraints
Input has shape (1, 784)
Output has shape (1, 10)

--------------------------------------------------------------------------------
Layer           Output Shape    Variables              Constraints              
                                                Linear    Quadratic      General
================================================================================
linear_0             (1, 38)           38           38            0            0

relu_1               (1, 38)           38            0            0           38

linear_2             (1, 43)           43           43            0            0

relu_3               (1, 43)           43            0            0           43

linear_4             (1, 10)            0           10            0            0

--------------------------------------------------------------------------------
Set parameter BestBdStop to value 0
Set parameter BestObjStop to value 0
Set parameter TimeLimit to value 180
Gurobi Optimizer version 10.0.1 build v10.0.1rc0 (linux64)

CPU model: AMD EPYC 7402 24-Core Processor, instruction set [SSE2|AVX|AVX2]
Thread count: 48 physical cores, 96 logical processors, using up to 32 threads
…
Correct label is  tensor(3)  || Wrong label is  tensor(9)
Warning for adding constraints: zero or small (< 1e-13) coefficients, ignored
Model for sequential:
148 variables
84 constraints
74 general constraints
Input has shape (1, 784)
Output has shape (1, 10)

--------------------------------------------------------------------------------
Layer           Output Shape    Variables              Constraints              
                                                Linear    Quadratic      General
================================================================================
linear_0             (1, 33)           33           33            0            0

relu_1               (1, 33)           33            0            0           33

linear_2             (1, 41)           41           41            0            0

relu_3               (1, 41)           41            0            0           41

linear_4             (1, 10)            0           10            0            0

--------------------------------------------------------------------------------
Set parameter BestBdStop to value 0
Set parameter BestObjStop to value 0
Set parameter TimeLimit to value 180
Gurobi Optimizer version 10.0.1 build v10.0.1rc0 (linux64)

CPU model: AMD EPYC 7402 24-Core Processor, instruction set [SSE2|AVX|AVX2]
Thread count: 48 physical cores, 96 logical processors, using up to 32 threads
…
Correct label is  tensor(3)  || Wrong label is  tensor(5)
Warning for adding constraints: zero or small (< 1e-13) coefficients, ignored
Model for sequential:
162 variables
91 constraints
81 general constraints
Input has shape (1, 784)
Output has shape (1, 10)

--------------------------------------------------------------------------------
Layer           Output Shape    Variables              Constraints              
                                                Linear    Quadratic      General
================================================================================
linear_0             (1, 37)           37           37            0            0

relu_1               (1, 37)           37            0            0           37

linear_2             (1, 44)           44           44            0            0

relu_3               (1, 44)           44            0            0           44

linear_4             (1, 10)            0           10            0            0

--------------------------------------------------------------------------------
Set parameter BestBdStop to value 0
Set parameter BestObjStop to value 0
Set parameter TimeLimit to value 180
Gurobi Optimizer version 10.0.1 build v10.0.1rc0 (linux64)

CPU model: AMD EPYC 7402 24-Core Processor, instruction set [SSE2|AVX|AVX2]
Thread count: 48 physical cores, 96 logical processors, using up to 32 threads
…
Correct label is  tensor(3)  || Wrong label is  tensor(9)
Warning for adding constraints: zero or small (< 1e-13) coefficients, ignored
Model for sequential:
160 variables
90 constraints
80 general constraints
Input has shape (1, 784)
Output has shape (1, 10)

--------------------------------------------------------------------------------
Layer           Output Shape    Variables              Constraints              
                                                Linear    Quadratic      General
================================================================================
linear_0             (1, 35)           35           35            0            0

relu_1               (1, 35)           35            0            0           35

linear_2             (1, 45)           45           45            0            0

relu_3               (1, 45)           45            0            0           45

linear_4             (1, 10)            0           10            0            0

--------------------------------------------------------------------------------
Set parameter BestBdStop to value 0
Set parameter BestObjStop to value 0
Set parameter TimeLimit to value 180
Gurobi Optimizer version 10.0.1 build v10.0.1rc0 (linux64)

CPU model: AMD EPYC 7402 24-Core Processor, instruction set [SSE2|AVX|AVX2]
Thread count: 48 physical cores, 96 logical processors, using up to 32 threads
…
Correct label is  tensor(3)  || Wrong label is  tensor(5)
Warning for adding constraints: zero or small (< 1e-13) coefficients, ignored
Model for sequential:
160 variables
90 constraints
80 general constraints
Input has shape (1, 784)
Output has shape (1, 10)

--------------------------------------------------------------------------------
Layer           Output Shape    Variables              Constraints              
                                                Linear    Quadratic      General
================================================================================
linear_0             (1, 36)           36           36            0            0

relu_1               (1, 36)           36            0            0           36

linear_2             (1, 44)           44           44            0            0

relu_3               (1, 44)           44            0            0           44

linear_4             (1, 10)            0           10            0            0

--------------------------------------------------------------------------------
Set parameter BestBdStop to value 0
Set parameter BestObjStop to value 0
Set parameter TimeLimit to value 180
Gurobi Optimizer version 10.0.1 build v10.0.1rc0 (linux64)

CPU model: AMD EPYC 7402 24-Core Processor, instruction set [SSE2|AVX|AVX2]
Thread count: 48 physical cores, 96 logical processors, using up to 32 threads
…
