…
Set parameter TokenServer to value "licences.gerad.lan"
Warning for adding constraints: zero or small (< 1e-13) coefficients, ignored
Model for sequential:
1256 variables
638 constraints
628 general constraints
Input has shape (1, 784)
Output has shape (1, 10)

--------------------------------------------------------------------------------
Layer           Output Shape    Variables              Constraints              
                                                Linear    Quadratic      General
================================================================================
linear_0            (1, 149)          149          149            0            0

relu_1              (1, 149)          149            0            0          149

linear_2            (1, 101)          101          101            0            0

relu_3              (1, 101)          101            0            0          101

linear_4            (1, 102)          102          102            0            0

relu_5              (1, 102)          102            0            0          102

linear_6             (1, 99)           99           99            0            0

relu_7               (1, 99)           99            0            0           99

linear_8             (1, 91)           91           91            0            0

relu_9               (1, 91)           91            0            0           91

linear_10            (1, 86)           86           86            0            0

relu_11              (1, 86)           86            0            0           86

linear_12            (1, 10)            0           10            0            0

--------------------------------------------------------------------------------
Set parameter BestBdStop to value 0
Set parameter BestObjStop to value 0
Set parameter TimeLimit to value 1800
Gurobi Optimizer version 10.0.1 build v10.0.1rc0 (linux64)

CPU model: AMD EPYC 7402 24-Core Processor, instruction set [SSE2|AVX|AVX2]
Thread count: 48 physical cores, 96 logical processors, using up to 32 threads
…
 * Prec@1 97.660
Best accuracy:  97.78
Test: [49/79]	Loss 0.0238 (0.1551) ([0.024]+[0.000])	Prec@1 99.219 (97.156)
 * Prec@1 97.660
Model for sequential:
1118 variables
569 constraints
559 general constraints
Input has shape (1, 784)
Output has shape (1, 10)

--------------------------------------------------------------------------------
Layer           Output Shape    Variables              Constraints              
                                                Linear    Quadratic      General
================================================================================
linear_0            (1, 115)          115          115            0            0

relu_1              (1, 115)          115            0            0          115

linear_2             (1, 90)           90           90            0            0

relu_3               (1, 90)           90            0            0           90

linear_4             (1, 94)           94           94            0            0

relu_5               (1, 94)           94            0            0           94

linear_6             (1, 97)           97           97            0            0

relu_7               (1, 97)           97            0            0           97

linear_8             (1, 86)           86           86            0            0

relu_9               (1, 86)           86            0            0           86

linear_10            (1, 77)           77           77            0            0

relu_11              (1, 77)           77            0            0           77

linear_12            (1, 10)            0           10            0            0

--------------------------------------------------------------------------------
Set parameter BestBdStop to value 0
Set parameter BestObjStop to value 0
Set parameter TimeLimit to value 1800
Gurobi Optimizer version 10.0.1 build v10.0.1rc0 (linux64)

CPU model: AMD EPYC 7402 24-Core Processor, instruction set [SSE2|AVX|AVX2]
Thread count: 48 physical cores, 96 logical processors, using up to 32 threads
…
Test: [49/79]	Loss 0.0001 (0.1470) ([0.000]+[0.000])	Prec@1 100.000 (97.109)
 * Prec@1 97.560
Warning for adding constraints: zero or small (< 1e-13) coefficients, ignored
Model for sequential:
1046 variables
533 constraints
523 general constraints
Input has shape (1, 784)
Output has shape (1, 10)

--------------------------------------------------------------------------------
Layer           Output Shape    Variables              Constraints              
                                                Linear    Quadratic      General
================================================================================
linear_0            (1, 122)          122          122            0            0

relu_1              (1, 122)          122            0            0          122

linear_2             (1, 94)           94           94            0            0

relu_3               (1, 94)           94            0            0           94

linear_4             (1, 88)           88           88            0            0

relu_5               (1, 88)           88            0            0           88

linear_6             (1, 84)           84           84            0            0

relu_7               (1, 84)           84            0            0           84

linear_8             (1, 75)           75           75            0            0

relu_9               (1, 75)           75            0            0           75

linear_10            (1, 60)           60           60            0            0

relu_11              (1, 60)           60            0            0           60

linear_12            (1, 10)            0           10            0            0

--------------------------------------------------------------------------------
Set parameter BestBdStop to value 0
Set parameter BestObjStop to value 0
Set parameter TimeLimit to value 1800
Gurobi Optimizer version 10.0.1 build v10.0.1rc0 (linux64)

CPU model: AMD EPYC 7402 24-Core Processor, instruction set [SSE2|AVX|AVX2]
Thread count: 48 physical cores, 96 logical processors, using up to 32 threads
…
 * Prec@1 94.890
Best accuracy:  97.62
Test: [49/79]	Loss 0.0648 (0.3137) ([0.065]+[0.000])	Prec@1 98.438 (93.594)
 * Prec@1 94.890
Model for sequential:
662 variables
341 constraints
331 general constraints
Input has shape (1, 784)
Output has shape (1, 10)

--------------------------------------------------------------------------------
Layer           Output Shape    Variables              Constraints              
                                                Linear    Quadratic      General
================================================================================
linear_0             (1, 96)           96           96            0            0

relu_1               (1, 96)           96            0            0           96

linear_2             (1, 55)           55           55            0            0

relu_3               (1, 55)           55            0            0           55

linear_4             (1, 52)           52           52            0            0

relu_5               (1, 52)           52            0            0           52

linear_6             (1, 59)           59           59            0            0

relu_7               (1, 59)           59            0            0           59

linear_8             (1, 40)           40           40            0            0

relu_9               (1, 40)           40            0            0           40

linear_10            (1, 29)           29           29            0            0

relu_11              (1, 29)           29            0            0           29

linear_12            (1, 10)            0           10            0            0

--------------------------------------------------------------------------------
Set parameter BestBdStop to value 0
Set parameter BestObjStop to value 0
Set parameter TimeLimit to value 1800
Gurobi Optimizer version 10.0.1 build v10.0.1rc0 (linux64)

CPU model: AMD EPYC 7402 24-Core Processor, instruction set [SSE2|AVX|AVX2]
Thread count: 48 physical cores, 96 logical processors, using up to 32 threads
…
 * Prec@1 96.790
Best accuracy:  97.75
Test: [49/79]	Loss 0.0143 (0.1837) ([0.014]+[0.000])	Prec@1 99.219 (96.125)
 * Prec@1 96.790
Model for sequential:
708 variables
364 constraints
354 general constraints
Input has shape (1, 784)
Output has shape (1, 10)

--------------------------------------------------------------------------------
Layer           Output Shape    Variables              Constraints              
                                                Linear    Quadratic      General
================================================================================
linear_0             (1, 91)           91           91            0            0

relu_1               (1, 91)           91            0            0           91

linear_2             (1, 55)           55           55            0            0

relu_3               (1, 55)           55            0            0           55

linear_4             (1, 60)           60           60            0            0

relu_5               (1, 60)           60            0            0           60

linear_6             (1, 67)           67           67            0            0

relu_7               (1, 67)           67            0            0           67

linear_8             (1, 53)           53           53            0            0

relu_9               (1, 53)           53            0            0           53

linear_10            (1, 28)           28           28            0            0

relu_11              (1, 28)           28            0            0           28

linear_12            (1, 10)            0           10            0            0

--------------------------------------------------------------------------------
Set parameter BestBdStop to value 0
Set parameter BestObjStop to value 0
Set parameter TimeLimit to value 1800
Gurobi Optimizer version 10.0.1 build v10.0.1rc0 (linux64)

CPU model: AMD EPYC 7402 24-Core Processor, instruction set [SSE2|AVX|AVX2]
Thread count: 48 physical cores, 96 logical processors, using up to 32 threads
…
Test: [49/79]	Loss 0.0296 (0.1568) ([0.030]+[0.000])	Prec@1 99.219 (96.562)
 * Prec@1 97.250
Warning for adding constraints: zero or small (< 1e-13) coefficients, ignored
Model for sequential:
670 variables
345 constraints
335 general constraints
Input has shape (1, 784)
Output has shape (1, 10)

--------------------------------------------------------------------------------
Layer           Output Shape    Variables              Constraints              
                                                Linear    Quadratic      General
================================================================================
linear_0             (1, 91)           91           91            0            0

relu_1               (1, 91)           91            0            0           91

linear_2             (1, 62)           62           62            0            0

relu_3               (1, 62)           62            0            0           62

linear_4             (1, 62)           62           62            0            0

relu_5               (1, 62)           62            0            0           62

linear_6             (1, 57)           57           57            0            0

relu_7               (1, 57)           57            0            0           57

linear_8             (1, 36)           36           36            0            0

relu_9               (1, 36)           36            0            0           36

linear_10            (1, 27)           27           27            0            0

relu_11              (1, 27)           27            0            0           27

linear_12            (1, 10)            0           10            0            0

--------------------------------------------------------------------------------
Set parameter BestBdStop to value 0
Set parameter BestObjStop to value 0
Set parameter TimeLimit to value 1800
Gurobi Optimizer version 10.0.1 build v10.0.1rc0 (linux64)

CPU model: AMD EPYC 7402 24-Core Processor, instruction set [SSE2|AVX|AVX2]
Thread count: 48 physical cores, 96 logical processors, using up to 32 threads
…
Test: [49/79]	Loss 0.0266 (0.1749) ([0.027]+[0.000])	Prec@1 99.219 (95.938)
 * Prec@1 96.440
Warning for adding constraints: zero or small (< 1e-13) coefficients, ignored
Model for sequential:
322 variables
171 constraints
161 general constraints
Input has shape (1, 784)
Output has shape (1, 10)

--------------------------------------------------------------------------------
Layer           Output Shape    Variables              Constraints              
                                                Linear    Quadratic      General
================================================================================
linear_0             (1, 63)           63           63            0            0

relu_1               (1, 63)           63            0            0           63

linear_2             (1, 30)           30           30            0            0

relu_3               (1, 30)           30            0            0           30

linear_4             (1, 28)           28           28            0            0

relu_5               (1, 28)           28            0            0           28

linear_6             (1, 17)           17           17            0            0

relu_7               (1, 17)           17            0            0           17

linear_8             (1, 11)           11           11            0            0

relu_9               (1, 11)           11            0            0           11

linear_10            (1, 12)           12           12            0            0

relu_11              (1, 12)           12            0            0           12

linear_12            (1, 10)            0           10            0            0

--------------------------------------------------------------------------------
Set parameter BestBdStop to value 0
Set parameter BestObjStop to value 0
Set parameter TimeLimit to value 1800
Gurobi Optimizer version 10.0.1 build v10.0.1rc0 (linux64)

CPU model: AMD EPYC 7402 24-Core Processor, instruction set [SSE2|AVX|AVX2]
Thread count: 48 physical cores, 96 logical processors, using up to 32 threads
…
 * Prec@1 97.020
Best accuracy:  97.03
Test: [49/79]	Loss 0.0498 (0.1629) ([0.050]+[0.000])	Prec@1 98.438 (96.500)
 * Prec@1 97.020
Model for sequential:
342 variables
181 constraints
171 general constraints
Input has shape (1, 784)
Output has shape (1, 10)

--------------------------------------------------------------------------------
Layer           Output Shape    Variables              Constraints              
                                                Linear    Quadratic      General
================================================================================
linear_0             (1, 59)           59           59            0            0

relu_1               (1, 59)           59            0            0           59

linear_2             (1, 35)           35           35            0            0

relu_3               (1, 35)           35            0            0           35

linear_4             (1, 38)           38           38            0            0

relu_5               (1, 38)           38            0            0           38

linear_6             (1, 17)           17           17            0            0

relu_7               (1, 17)           17            0            0           17

linear_8             (1, 11)           11           11            0            0

relu_9               (1, 11)           11            0            0           11

linear_10            (1, 11)           11           11            0            0

relu_11              (1, 11)           11            0            0           11

linear_12            (1, 10)            0           10            0            0

--------------------------------------------------------------------------------
Set parameter BestBdStop to value 0
Set parameter BestObjStop to value 0
Set parameter TimeLimit to value 1800
Gurobi Optimizer version 10.0.1 build v10.0.1rc0 (linux64)

CPU model: AMD EPYC 7402 24-Core Processor, instruction set [SSE2|AVX|AVX2]
Thread count: 48 physical cores, 96 logical processors, using up to 32 threads
…
Test: [49/79]	Loss 0.0041 (0.1825) ([0.004]+[0.000])	Prec@1 100.000 (95.797)
 * Prec@1 96.540
Warning for adding constraints: zero or small (< 1e-13) coefficients, ignored
Model for sequential:
328 variables
174 constraints
164 general constraints
Input has shape (1, 784)
Output has shape (1, 10)

--------------------------------------------------------------------------------
Layer           Output Shape    Variables              Constraints              
                                                Linear    Quadratic      General
================================================================================
linear_0             (1, 65)           65           65            0            0

relu_1               (1, 65)           65            0            0           65

linear_2             (1, 34)           34           34            0            0

relu_3               (1, 34)           34            0            0           34

linear_4             (1, 31)           31           31            0            0

relu_5               (1, 31)           31            0            0           31

linear_6             (1, 14)           14           14            0            0

relu_7               (1, 14)           14            0            0           14

linear_8              (1, 9)            9            9            0            0

relu_9                (1, 9)            9            0            0            9

linear_10            (1, 11)           11           11            0            0

relu_11              (1, 11)           11            0            0           11

linear_12            (1, 10)            0           10            0            0

--------------------------------------------------------------------------------
Set parameter BestBdStop to value 0
Set parameter BestObjStop to value 0
Set parameter TimeLimit to value 1800
Gurobi Optimizer version 10.0.1 build v10.0.1rc0 (linux64)

CPU model: AMD EPYC 7402 24-Core Processor, instruction set [SSE2|AVX|AVX2]
Thread count: 48 physical cores, 96 logical processors, using up to 32 threads
…
